pretrained_models/cifar10_half_finetune_last.pt (torch, 27338 bytes, 2 tensors)

linear.weight f4 [10, 640]
-0.24977466 0.04109099 -0.01940877 0.24572483 0.20418586 -0.09261306 -0.05030757 0.08004718
-0.021925144 0.024153734 -0.4662253 0.18870723 -0.010414608 -0.1362684 0.27424967 0.3210762
-0.018767888 0.0648939 0.18488431 -0.050300825 0.0049571893 0.11172381 -0.015737973 0.10946143
-0.12878156 0.26823473 -0.23830858 -0.20820355 -0.15333843 0.042375047 -0.19763736 -0.09113184
-0.10595394 0.024421776 -0.03926985 0.01109172 -0.05425901 0.10928934 -0.08706352 -0.11682384
0.066689126 0.17363812 -0.02554822 -0.04365716 0.050633732 0.21977463 0.030062158 0.118097685
-0.42165893 -0.20435295 -0.2614761 0.115961425 -0.11501126 -0.06303242 0.28189987 -0.034847435
-0.4708895 0.027296193 0.38243115 -0.1188346 -0.09905776 -0.029575158 0.19375306 0.2085123
0.040971197 -0.20213121 0.09542394 -0.10314156 0.03187881 0.08841549 -0.2695644 0.035309896
-0.03309035 -0.25248864 -0.019353306 -0.07718098 -0.035184857 0.30198213 0.34585172 0.038093872
-0.15670602 -0.18939653 -0.12827817 0.0854617 0.16422762 -0.2933467 0.117363125 -0.05079311
-0.13589968 0.111031935 0.08766984 -0.29343572 -0.13553788 -0.017857198 0.28923586 0.3347074
-0.14630473 -0.24023409 0.03670769 0.09004997 0.00230502 0.33488196 0.008057314 0.18858904
0.24872987 -0.4253361 -0.0017265724 -0.07535964 -0.16751583 0.16119465 -0.32377437 -0.048698988
-0.3475693 0.11630199 0.22384621 0.07938488 -0.112527825 0.1556142 -0.01932177 0.407764
0.49179482 0.123292 0.13132562 -0.11848372 0.028210467 -0.2553371 -0.0044012517 -0.13830896
-0.26083612 -0.16883726 -0.275666 -0.24290411 -0.06775421 0.044860337 -0.017736506 0.088863075
-0.17472336 -0.023649404 0.15208179 0.212284 0.026733411 -0.2454233 -0.09400854 0.17402856
0.19133413 -0.03716648 -0.21906728 0.08090403 -0.09541128 0.22390306 -0.20315549 0.20443772
-0.22033028 -0.06570965 0.063991435 -0.14675435 0.33948603 0.061013144 0.20564266 -0.017438883
0.5019656 -0.15802947 0.13691431 0.04299925 0.06281263 -0.024545293 -0.33996353 0.087900385
0.26591367 -0.05379 0.17362116 -0.0912372 -0.10922493 0.12342508 0.09395779 -0.39155516
0.29252702 -0.13235974 0.16834 -0.023314564 0.10325316 -0.020028247 0.20287566 -0.031849287
-0.112734705 -0.35135558 -0.10990097 -0.1481373 0.20786898 -0.117398866 -0.040468987 -0.35054758
-0.018074099 0.24748036 0.021120436 0.101993516 -0.021569015 -0.022171574 -0.04688317 -0.098594904
0.41010845 0.17812617 0.24078475 -0.047610268 0.110331975 0.011667685 0.08903707 -0.17510861
-0.13154384 -0.026009988 -0.03845883 -0.1351876 0.04372185 -0.16216898 -0.21064913 0.09217654
0.23565067 0.0824681 -0.109447345 -0.12709841 -0.07327389 0.06965047 -0.27157527 -0.0988846
0.110383876 0.5043634 -0.17049246 -0.074324414 0.016483508 0.04513913 -0.012812772 -0.0977264
0.11241658 0.16340838 -0.2652583 -0.077384286 -0.012701539 -0.053718355 -0.121450804 -0.049308874
-0.18468358 0.14721423 -0.10091309 -0.07865391 0.46095556 -0.11287817 -0.23761927 -0.30101722
-0.041601736 0.12852445 -0.19180445 0.70067513 -0.14042686 0.00077491393 0.08897291 -0.017670676
00000000: eec4 7fbe 074f 283d 24ff 9ebc 4a9f 7b3e
00000010: 1916 513e eaab bdbd 4f0f 4ebd c7ef a33d
00000020: 5c9c b3bc 0dde c53c 15b5 eebe 783c 413e
00000030: 08a2 2abc f289 0bbe 746a 8c3e 1a64 a43e
00000040: 1dbf 99bc 18e7 843d 5052 3d3e 3d08 4ebd
00000050: eb6f a23b 74cf e43d ecec 80bc 502d e03d
00000060: 50df 03be 1056 893e 2a07 74be 5033 55be
00000070: c004 1dbe 7591 2d3d 7361 4abe 55a3 babd
00000080: 61fe d8bd 2d10 c83c 6cd9 20bd 0cba 353c
00000090: b23e 5ebd 17d3 df3d 5c4e b2bd 5641 efbd
000000a0: 4f94 883d 31ce 313e 804a d1bc dad1 32bd
000000b0: 5165 4f3d 9a0c 613e ea44 f63c 33dd f13d
000000c0: aee3 d7be e641 51be 32e0 85be 2f7d ed3d
000000d0: 068b ebbd 2417 81bd 2e55 903e 2fbc 0ebd
000000e0: 6e18 f1be 449c df3c 04ce c33e 8e5f f3bd
000000f0: cbde cabd 9a47 f2bc 3467 463e 4084 553e
00000100: 6ad1 273d 7cfb 4ebe a06d c33d e23b d3bd
00000110: 5b93 023d 2e13 b53d 5804 8abe 1ca1 103d
00000120: bf89 07bd 3146 81be d38a 9ebc 1011 9ebd
00000130: ff1d 10bd 679d 9a3e 7a13 b13e 5208 1c3d
00000140: 8b77 20be 2af1 41be 5a5b 03be 8b06 af3d
00000150: 492b 283e 8a31 96be 145c f03d 700c 50bd
00000160: 4929 0bbe b664 e33d 3f8c b33d 353d 96be
00000170: 71ca 0abe 4249 92bc b916 943e c55e ab3e
00000180: e8d0 15be edff 75be ce5a 163d 1e6c b83d
00000190: d20f 173b a675 ab3e d302 043c 7c1d 413e
000001a0: 0bb3 7e3e a7c5 d9be 284e e2ba 2856 9abd
000001b0: 4589 2bbe 3610 253e c1c5 a5be 9778 47bd
000001c0: 9af4 b1be bd2f ee3d f137 653e 8a94 a23d
000001d0: fd74 e6bd 5459 1f3e b048 9ebc 71c6 d03e
000001e0: 88cc fb3e 8480 fc3d 397a 063e 98a7 f2bd
000001f0: a319 e73c 8bbb 82be 6038 90bb dda0 0dbe
00000200: 508c 85be ade3 2cbe 1824 8dbe dbbb 78be
00000210: b8c2 8abd 79bf 373d 264c 91bc d8fd b53d
00000220: aeea 32be 65bc c1bc 54bb 1b3e fa60 593e
00000230: 0700 db3c 3f50 7bbe 8d87 c0bd 8b34 323e
00000240: 18ed 433e e13b 18bd 2c53 60be 03b1 a53d
00000250: fd66 c3bd d846 653e fe07 50be 1f58 513e
00000260: 439e 61be c892 86bd f10d 833d c646 16be
00000270: 1dd1 ad3e ebe8 793d fd93 523e fddb 8ebc
00000280: d180 003f 7ad2 21be 4433 0c3e fb1f 303d
00000290: e8a3 803d 3613 c9bc b30f aebe 1e05 b43d
000002a0: d625 883e e752 5cbd bfc9 313e 92da babd
000002b0: 52b1 dfbd 4ac6 fc3d f16c c03d eb79 c8be
000002c0: 1ac6 953e 5089 07be 5261 2c3e 2ffe bebc
000002d0: 6576 d33d 4712 a4bc a3be 4f3e 6674 02bd
000002e0: 74e1 e6bd e1e4 b3be c213 e1bd 4eb1 17be
000002f0: 9bdb 543e d16e f0bd cfc2 25bd f97a b3be
00000300: 2210 94bc 7e6b 7d3e c404 ad3c fae1 d03d
00000310: 81b1 b0bc 29a1 b5bc 9108 40bd 20ec c9bd
00000320: bcf9 d13e b566 363e 4790 763e fc02 43bd
00000330: bbf5 e13d d129 3f3c 1159 b63d ac4f 33be
00000340: 6eb3 06be e612 d5bc 0287 1dbd 9e6e 0abe
00000350: af15 333d a00f 26be 68b4 57be 0ec7 bc3d
00000360: 694e 713e 09e5 a83d ee25 e0bd 1626 02be
00000370: 9f10 96bd e8a4 8e3d ea0b 8bbe 0284 cabd
00000380: f110 e23d f61d 013f 9395 2ebe 6637 98bd
00000390: 6c08 873c cfe3 383d a9ec 51bc c724 c8bd
000003a0: aa3a e63d 8754 273e f0cf 87be a77b 9ebd
000003b0: 1e1a 50bc c707 5cbd 33bb f8bd 1af8 49bd
000003c0: b11d 3dbe 54bf 163e 86ab cebd 4d15 a1bd
000003d0: 5e02 ec3e ac2c e7bd 7752 73be ee1e 9abe
000003e0: 9566 2abd ea9b 033e 6368 44be 725f 333f
000003f0: 0fcc 0fbe 9823 4b3a 6e37 b63d 18c2 90bc

linear.bias f4 [10]
-0.13101591 0.0032713257 0.32029688 0.44508967 0.070538454 0.07662444 -0.13739538 -0.3743689
-0.078988925 -0.1353496
00000000: 0929 06be bd63 563b f4fd a33e cbe2 e33e
00000010: 7776 903d 46ed 9c3d 60b1 0cbe 48ad bfbe
00000020: f2c4 a1bd 1699 0abe
