pretrained_models/cnn_mnist_half.pt (torch, 105036 bytes, 8 tensors)

net.conv1.weight f4 [16, 1, 5, 5]
00000000: bbb5 6abd b434 2d3d c0fd 17bd d888 ca3d
00000010: 5f70 debd 3388 e53d 8639 d0bc 097e f9bb
00000020: ec8f 5fbe c570 7ebe 1e1b 8a3b e4b0 b23d
00000030: 8f45 e43d c34b e83c 3139 a8be 1862 59bc
00000040: e0d7 033e 18c5 2b3e ec3a 17be 1cb6 0cbc
00000050: 3141 3b3d 102a a83d 028b 533e 4cdd 63be
00000060: f2ac 3dbe e51f 42bd bf25 dbbd 741e b33d
00000070: b596 52be d3b2 20be dfe5 13be 31aa 6dbe
00000080: 8a60 31be efd1 f83d 1c54 403d 9ddc 8b3d
00000090: 5550 b2bc 9e26 e4bd d3cb 593d a66a 17be
000000a0: 6434 22be 2de5 a2bd 1a7e 343e 04f4 283e
000000b0: dedf c9bc a8af 433d e9f9 593e fcc0 8e3e
000000c0: f8ba 2e3e cdf4 123e 2743 473d 1520 2abe
000000d0: 999b 203d 30ad 1cbe a6f0 29be 7956 f1bd
000000e0: 56b9 ba3d 351e ba3d 7dd0 0abe 18e9 c23c
000000f0: fe06 2a3e 608c a43c 1939 be3c a40f 593d
00000100: 326b 203e 67b3 9b3e 6954 7cbd 2e31 823c
00000110: 391b 393e f319 ab3e db71 5b3e bfd2 483e
00000120: a9a2 963d c716 e3bd 9757 233e cb0b 2cbe
00000130: 33ba 84be 176e 923d 6d90 833d 02f2 87be
00000140: 40e0 533c 73ce 7fbd fdb5 acbd 2b1e f2bd
00000150: a4b6 583d da74 ebbd 2352 db3d 9ce6 df3d
00000160: 3108 2e3e 6024 d03d 6421 20be 81a4 57bd
00000170: 225b 293e 1096 0c3e 85e7 81bd 8c38 a7bd
00000180: 180c 6d3e ad36 273e f849 81bc 1409 223c
00000190: 07b5 1ebe b611 aeba 58b9 4abe c227 5ebe
000001a0: 5e68 6ebd 73eb c93c 5b47 0ebe eb5c 403c
000001b0: 0bdb 5bbe d186 173e 8416 a93d 3c85 86be
000001c0: ae52 1fbe 6a14 8bbd eae0 da3c 46bb 1fbc
000001d0: 9d92 3ebc c611 87bd 4c14 f6bd f0f4 0f3e
000001e0: a1b1 4dbe 65f7 1abe 7406 b6bd b0bc 96bd
000001f0: f4f4 273d 4a72 4cbe c6ea 9fbd 484e c33b
00000200: 925c debd 5ad3 293d b7d7 0b3e 14bd ebbb
00000210: f879 523c fb67 29bc 57a9 a63d 03f7 cc3d
00000220: 688f 403e 3790 d93d cc30 383e 4406 153d
00000230: 4577 66be 38eb fcbd cc54 cf3d ad50 913c
00000240: b2ed e5bc 4415 67be 889c 7ebe 8ceb 61be
00000250: 463b 7cbd 7c56 bf3d 5256 9a3d 12df 6cbe
00000260: e1c6 8e3d 721d 39be 7908 e4bd 907f 32be
00000270: 34a4 0ebe 619d 2abe 9cfc 87be e3a7 8bbe
00000280: ad4a 9bbd 3c02 a0bd 5247 39be 7243 c5bc
00000290: 5dc9 7cbe dd4f 303c 60c0 1d3e d7d0 fdbd
000002a0: 75ad f23d 95d4 3e3d c0d2 fdbd 2aaf 313e
000002b0: 92da 7a3c 2271 31bd fa00 6e3e 9c28 a5bd
000002c0: 5f1e 1c3e 37eb 953d a41a 823e 54bc 3c3e
000002d0: a73c 063e ee45 f63d 97c6 0abd 9463 03bd
000002e0: b4cd 1bbe d042 113e 1145 163e 6f48 543d
000002f0: 2bde 5fbe af41 c8bd e3ae 62bd 768c f8bd
00000300: f377 7abe ccf0 68bd 5e84 77be 54b2 c13d
00000310: a36f eabb b0cc 69bc 7551 92be 71eb 59be
00000320: 7eee 6abd 17bd 603e 517b ab3c 25a6 693e
00000330: 2337 f93d a9cc 9b3d 4c56 3f3d 8943 143b
00000340: 242a 0c3d 5dfd 05bd 98de c6bc fd6a c2bc
00000350: 7bca 5abe 804a 2abe f3c6 d23d a3f4 80be
00000360: 7def 14be 175c 873d 0bf7 37bd ce52 b4bd
00000370: 419e 85be 82d4 c1bc 1782 86be 4cdf 16be
00000380: d7de 06be 30c3 263d a7b3 443d 05a8 4c3e
00000390: 7416 aa3d 5a55 933e f7de 353e fe32 90bd
000003a0: 7ff7 1c3e be41 a3bd 2457 393c 196e 363d
000003b0: 0ba3 913d db9b 393e a750 04bd 66c4 3d3d
000003c0: c302 843d 9577 59be fd19 0d3e 76f0 33be
000003d0: 7244 55bc 0940 80bd 829b 0fbe 990f 13bd
000003e0: 7de9 ad3d aae1 14be 287d ecbd 82f1 e9bd
000003f0: 9d11 84be bc5a b73d 7e54 43bc b89f 33be
-0.057302218 0.04228659 -0.03710723 0.09889382 -0.10861277 0.112076186 -0.025418054 -0.0076139015
-0.21832246 -0.24847706 0.0042146584 0.087251455 0.1114608 0.028356439 -0.32856134 -0.013268016
0.12875319 0.16774404 -0.1476857 -0.00858834 0.04571647 0.08211148 0.20658496 -0.22252387
-0.18523005 -0.0473937 -0.10700559 0.08746043 -0.20565303 -0.15693216 -0.14443158 -0.23209454
-0.17321983 0.12149417 0.046955213 0.06829188 -0.02176682 -0.11140178 0.053172898 -0.14786777
-0.15840298 -0.07953868 0.17626229 0.16499335 -0.024642881 0.04777494 0.2128674 0.2788161
0.1706351 0.14351197 0.048648026 -0.16613801 0.03921089 -0.15300441 -0.16595706 -0.117840715
0.09117381 0.09087793 -0.13556094 0.023792788 0.1660423 0.020086467 0.023220586 0.05299343
0.15665892 0.3041031 -0.061603937 0.015892591 0.18076791 0.33418235 0.21430151 0.19611643
0.07355244 -0.11088329 0.15951382 -0.16801374 -0.2592331 0.07149904 0.064240314 -0.26551825
0.012931883 -0.062452745 -0.08433149 -0.1182216 0.052908555 -0.11496897 0.10709026 0.10932657
0.16995312 0.10163188 -0.15637738 -0.052647118 0.1653867 0.1372912 -0.06342987 -0.08165082
0.23149145 0.16329451 -0.015782341 0.00988986 -0.15498744 -0.0013280425 -0.19797266 -0.21694854
-0.058205 0.024648404 -0.13894407 0.011740903 -0.21470277 0.14797522 0.08256248 -0.26273525
-0.15558884 -0.06791003 0.026718576 -0.009749239 -0.011631635 -0.06595187 -0.1201559 0.1405828
-0.20087291 -0.15133436 -0.088879496 -0.07360208 0.04100509 -0.19965473 -0.07808451 0.0059602596
-0.108575 0.041461326 0.13656507 -0.0071941707 0.012846462 -0.010339732 0.08137768 0.10008051
0.18804705 0.1062321 0.17987365 0.03638293 -0.22506435 -0.12349552 0.101235956 0.017738665
-0.028067444 -0.22566706 -0.248644 -0.2206251 -0.061579965 0.093426675 0.075359955 -0.2313197
0.06971527 -0.18077639 -0.111344285 -0.17431474 -0.13929826 -0.16661598 -0.26559913 -0.27276525
-0.07582603 -0.07812926 -0.18093613 -0.024080012 -0.24686189 0.010761228 0.15405416 -0.12393349
0.118494906 0.046589453 -0.12393713 0.17351976 0.0153109 -0.043320782 0.2324256 -0.08064386
0.1524596 0.07320254 0.2541095 0.18431216 0.13109075 0.12025057 -0.033880796 -0.032077387
-0.15215188 0.14185643 0.14674784 0.05182689 -0.21862094 -0.09778153 -0.055342566 -0.12136166
-0.2445982 -0.056870267 -0.24171588 0.094578415 -0.0071544214 -0.014269993 -0.28577772 -0.2128122
-0.05735635 0.21947132 0.020932825 0.22817285 0.121687196 0.07607395 0.04671316 0.0022623262
0.034219876 -0.03271233 -0.024276063 -0.023732657 -0.21366303 -0.16629982 0.10291853 -0.25186643
-0.14544483 0.066093616 -0.044913333 -0.08804856 -0.260973 -0.023660902 -0.26271126 -0.14733618
-0.13170944 0.04071349 0.048022892 0.1998597 0.08305064 0.28776056 0.17760836 -0.07040976
0.15328787 -0.07971524 0.01131228 0.04453859 0.07111176 0.1812586 -0.03230348 0.04632988
0.06445839 -0.21237023 0.13779445 -0.17572197 -0.013016807 -0.06262214 -0.14024165 -0.035903547
0.084918 -0.14539209 -0.11547309 -0.11423017 -0.25794688 0.08952853 -0.011922 -0.17541397

net.conv1.bias f4 [16]
00000000: 2c61 553e f467 ecbd 375d 6b3e 6f4b 343e
00000010: 8830 6d3d 521d 8f3c bff9 a4bd 35b1 943d
00000020: f969 2b3e 6af2 ac3a eaf7 cbbd 5219 08be
00000030: 8388 a7bd 6c78 2dbe 7dbe 2b3d 4d51 eb3d
0.2083785 -0.11543265 0.22984777 0.176069 0.05790761 0.017470036 -0.08055448 0.07260362
0.16739644 0.0013194804 -0.09959395 -0.13290909 -0.081803344 -0.16940469 0.04192971 0.11490116

net.conv2.weight f4 [32, 16, 4, 4]
00000000: fc58 b3bc db9d 49bd 29b5 39bc b10c 903c
00000010: f257 1bbc 5e9c d7bd acb6 82bd 43f8 b5bd
00000020: 3cbe 92bd 40c9 d6bc 887f bbbd 16f2 53bd
00000030: a199 0d3d 3b9f 88bc abaa 2cbd 3254 90bd
00000040: a09c 3abb e443 1dbd 626f 013d 5154 21bd
00000050: b849 c4bd 55d6 d0bd fcbb 5ebd 1798 2a3d
00000060: 2420 c9bd cc7f d83c ec1e 41bd 6fbb fcbb
00000070: 1b38 8b3c ce7e 94bc 92a4 453d d83a 3a3c
00000080: c570 453d 48b3 8a3c 3540 3bbd 52c5 723d
00000090: 12e8 32bd ae43 9cbc 1187 a5bd ca6f a6bc
000000a0: 8160 04be 0675 c7bd 3879 5ebd b4f3 b2bd
000000b0: 0f07 4bbc 19a0 b1bb c0c7 21bd 167c dcbd
000000c0: 0762 79bd 2e57 54bc 36e5 f03c c89f 8c3d
000000d0: 7e27 8d3c ccf6 68bc 1de8 953b 8ba0 3bbd
000000e0: f7a2 b4bd 7c73 1eba 910b 3ebd 4fcd 973c
000000f0: 02ef 86bd b5c7 a8bc 81ad 89bd 59d0 b3bb
00000100: 350d 88bc a2a4 213c 6fa7 84bb c123 f43b
00000110: fcdd ea3b 95e2 0cbd f1e3 1dbd 0dc7 57bc
00000120: d3b7 383d 0fac 04bd debc 453d 0c42 38bc
00000130: 518a debc ce09 62bc 4ee2 8c3d 4c40 9d3d
00000140: de20 7bbd 1abb 413d dfa8 f83c 2dee 313d
00000150: fa8e 933d f2b2 ff39 53db 443d a0fd 543d
00000160: e930 bbbc 7874 123d c246 96bc d170 763d
00000170: 7140 07bd 6897 3dbd 766d a7bc 0c92 f13b
00000180: dd72 71bc 7785 653c fc88 1a3d 5389 9eba
00000190: 9b38 e43b d2a3 27bd 9bf5 96bb ccf8 74bd
000001a0: d742 a7bc 019e 3bba bd35 583d cfd8 52bd
000001b0: 16c2 9a3d 07e3 0a3d 8f8e b53d 6448 8d3d
000001c0: ae59 a4bd a817 c3bd f5cf b3bd eade 0cbd
000001d0: 9e61 8dbc 45cd fbbc a19e ebbc df04 2abd
000001e0: e86d 133c 4e6f 443d beba 163c 4f75 3fbd
000001f0: 84a1 493c 93ee 043d c04d 26bc 5092 fe3c
00000200: 1c82 ecbc 78b2 463d 77fc b9bd 3bd5 afbd
00000210: dcc8 bf3d a366 9abb 3cca 293d f338 efba
00000220: 4449 0b3d 39a9 323d eff6 a73d 6c09 3d3d
00000230: ab53 66bd a339 24bd 4d5d 9abc 397e a23d
00000240: 3d6a 5dbd 6668 373d 193d 91bc 691a 07bc
00000250: fdfb 6d3d 7903 533d 2608 963d b51a 3b3d
00000260: 5bef 02bd 19b1 52bd 4b11 5abc ba23 7e3d
00000270: 8dd2 87bd 7566 dfbd 9b6c 0cbb 2f87 693d
00000280: a010 1dbd 3e59 adbd 9375 e2bd 4493 ecbc
00000290: a0db 8137 9d08 3dbd e9f3 88bc a7c4 14bc
000002a0: 98e2 6f3d 28fd 4e3d f9cd e5bb 6522 7fbd
000002b0: caee 18bd e559 883d 5e30 973c 601b 0a3d
000002c0: 2326 70bd 902f 3c3d b3e1 393d 92a7 4c3d
000002d0: 2401 95bc 7fe5 693c 8683 d93a dd33 b53d
000002e0: 0b2c 223b 76c7 113c 39d0 753d d4fa ae3c
000002f0: 944c eebc e875 95bc 1a43 a6bc e3b8 d1bc
00000300: 96c0 1d3d fbef 06bd d8d3 083d 7bf5 983d
00000310: c8f6 93bc 45ca 1dbd e742 c73c 83da 923c
00000320: 9beb aabd d94c 58bb e9ef 07bd 5703 b3bd
00000330: cb29 19bd 7d21 82bd 675d 173d fc03 5bbd
00000340: 9069 0fbd 989d 2a3d 3d4d ac3d cf3f 493d
00000350: 147b cd3c 8975 fb3c 7fd2 2d3d a80e df3c
00000360: 81a1 26bd 896a 94bd 28b5 11bd a411 583d
00000370: c8cc 67bd 1eff 69bb 1a3e 0c3c 49cd 60bc
00000380: 7182 50bd 4409 4d3d ab92 1dbd e263 5f3d
00000390: ba4f aabd 8b40 68bd 921b 2f3c 1a47 12bd
000003a0: 6834 193d 1b10 0fbd 7e41 9dbd 3dfc a3bd
000003b0: ec04 733d 06a9 ae3d ba71 f5bc 705c 6cbc
000003c0: 2e41 e6bc b798 b4bb bb16 9a3d 110f e5bc
000003d0: dbf5 433c c0ac 913d cde3 8d3c bcb6 6f3d
000003e0: 25b3 b3bc cdf6 3b3d a1a7 81bd dee9 acbb
000003f0: f153 e7bc 0d04 1c39 6505 8b3c 6584 063d
-0.021893017 -0.04922281 -0.011334696 0.017584177 -0.009481417 -0.105278715 -0.06382498 -0.08885243
-0.071651906 -0.02621901 -0.09155184 -0.051744543 0.03457034 -0.01667749 -0.04215495 -0.07047309
-0.0028474703 -0.038394824 0.031600364 -0.03938705 -0.09584373 -0.101971306 -0.054378495 0.04164895
-0.098205835 0.026428126 -0.04714863 -0.0077127735 0.016994527 -0.018126871 0.04825265 0.0113665685
0.04820325 0.016931191 -0.04571553 0.05927021 -0.04367835 -0.019075241 -0.080824025 -0.020316977
-0.12927438 -0.09739117 -0.054314822 -0.08737889 -0.01239182 -0.0054206965 -0.039497137 -0.10765855
-0.0608845 -0.012960238 0.029406171 0.06866413 0.017230745 -0.014218997 0.004574789 -0.045807403
-0.088201456 -0.000604443 -0.04639775 0.018530516 -0.06588556 -0.02060304 -0.06722546 -0.0054874835
-0.01660786 0.009865912 -0.00404828 0.0074505513 0.007167576 -0.034395773 -0.03854746 -0.013170016
0.045097183 -0.03239065 0.04827582 -0.011246216 -0.027165564 -0.013796283 0.06879102 0.07678279
-0.06131064 0.047297575 0.030353962 0.043440033 0.07205005 0.00048770715 0.048060726 0.05199969
-0.02285047 0.035755605 -0.018344287 0.060166184 -0.03302044 -0.04628697 -0.020437937 0.0073721465
-0.014736858 0.014008871 0.037728295 -0.0012095369 0.0069647557 -0.040927716 -0.004606915 -0.059807584
-0.020417614 -0.00071570283 0.052785624 -0.051476296 0.0755655 0.033907916 0.088650815 0.06898573
-0.080249175 -0.095259964 -0.08779899 -0.034392275 -0.017258462 -0.030737529 -0.028762164 -0.04150855
0.008998372 0.04795771 0.009199796 -0.046742734 0.012306575 0.032454085 -0.010150373 0.031075627
-0.028870635 0.048510045 -0.09081357 -0.08585592 0.09364483 -0.0047119423 0.04145263 -0.0018251225
0.03400542 0.043618415 0.08201396 0.046151564 -0.056232136 -0.04009403 -0.018843317 0.07934231
-0.054056395 0.044777296 -0.017729329 -0.008246043 0.058101643 0.051516984 0.07325773 0.045679767
-0.03196655 -0.051438425 -0.013309787 0.06204579 -0.06631956 -0.10908214 -0.0021427039 0.057013687
-0.038345933 -0.08464287 -0.11057582 -0.028878815 1.548027e-05 -0.046150792 -0.016717868 -0.009080089
0.058565706 0.050534397 -0.0070130792 -0.06228866 -0.037337102 0.06657771 0.01845568 0.033717513
-0.05863012 0.045943797 0.04538126 0.049964495 -0.01818902 0.014275908 0.0016594983 0.08847783
0.002474549 0.008897653 0.06001303 0.021359839 -0.02908925 -0.018244699 -0.020295668 -0.025600856
0.038513742 -0.032943707 0.033405155 0.07468697 -0.01806201 -0.038522977 0.024323894 0.01792646
-0.083457194 -0.003300479 -0.03318778 -0.087408714 -0.037393373 -0.06354044 0.03695431 -0.053470597
-0.03501278 0.0416542 0.084131695 0.04913312 0.025083102 0.030695694 0.042437073 0.027228668
-0.040681366 -0.072468825 -0.035573155 0.0527512 -0.05659178 -0.003570504 0.008559728 -0.013720819
-0.05090565 0.050057665 -0.03846995 0.054538615 -0.08315988 -0.056702178 0.010687726 -0.03571234
0.037403494 -0.03492747 -0.07678507 -0.08007095 0.059330866 0.085283324 -0.029961456 -0.014426336
-0.028107252 -0.005511369 0.07523867 -0.027961286 0.011960472 0.071130276 0.017320538 0.05852388
-0.021936009 0.045889664 -0.06330801 -0.0052769026 -0.028238269 0.00014878828 0.016970346 0.032841105

net.conv2.bias f4 [32]
00000000: bc23 52bd 02a3 98bc a0c2 8737 b5b7 39bd
00000010: e14a 6ebd 346b ea3c 6bfb 4139 9bde a43b
00000020: 6416 1f3d 52fc dabc 5c1a 9abc ae3a 223d
00000030: 99c7 163b f437 16bd b093 b43c b31e cfbd
00000040: d4ca 21bd 8215 a53c 5d82 c8bd 7f21 ccbd
00000050: 6528 8abd d421 94bd 2cca a2bd b9cb bbbd
00000060: 67d3 5abd 9140 503c 883b cbbc 6f46 0dbd
00000070: f7bd 4fbd 903a 77bd 9344 a5b9 c164 d5bc
-0.05130361 -0.018632416 1.6183883e-05 -0.045341212 -0.05817688 0.028615572 0.00018499575 0.0050314195
0.038839713 -0.026731644 -0.018811397 0.039606743 0.0023007153 -0.036674455 0.02204308 -0.10113277
-0.039500073 0.020151857 -0.0979049 -0.099673264 -0.06745986 -0.07233015 -0.079487175 -0.091697164
-0.053424265 0.012710706 -0.02480866 -0.034491 -0.050718274 -0.060358584 -0.00031522344 -0.02604902

net.fc1.weight f4 [32, 512]
00000000: 0685 0abd a752 a4bd ac8d 2fbc ca06 73bc
00000010: e451 05bd 2cd4 8dbc f9d8 3e3d 8fe4 a0bb
00000020: 8cb9 063d 630e 0ebc f1ae 843c c429 b63b
00000030: 0a17 0e3b 7913 b1bc f13b 813b dfea a93c
00000040: bc94 1c3c 8eb8 0abd 7029 cf3c e7db a03c
00000050: 52c8 49bc 73b0 d13b 8a75 503d 0094 ba3c
00000060: 19f4 1c3c 10b0 33bd 9508 93bd 3a87 0dbd
00000070: 465b 513d 4767 3bbd b4d2 2fbd e7e1 95b8
00000080: f6df 20bc b4ea 3c3d 16a6 87bc 3630 83bb
00000090: 4b12 94bc f246 d23a 0631 bb3c 21a7 73bd
000000a0: 8a79 4f3c 90aa 133d 2729 0dbd 48d5 ccbc
000000b0: 8260 01bc a1ed 34bd 4331 f33c f3be 363d
000000c0: 1053 553d 5b2d 433d 430a 073d 7020 8b3c
000000d0: 95e4 083d a1a9 7c3b 3eb6 0b3d 5617 3fbc
000000e0: da1b d03a 89e7 be3b 5ceb d73c ec6b 9a3c
000000f0: 0ffb 54bc 84e1 fb3b e434 453d b4e6 8abc
00000100: fd2e 8f3c 94eb 74bc 5d40 8ebd cee0 a3bc
00000110: 6672 9a3d dfc1 3fbd c3af b53c f44f 473d
00000120: 329e a33d b2c7 49bd a580 97bc ac53 a33c
00000130: 71bc 343d 02df 08bd 4251 29bd fd95 0bbd
00000140: 9c4e 603c e0a6 7c3a fb09 c6bc 1628 1c3c
00000150: c2bf 033c 7b21 3a3d ed7f b8bc d2e7 153d
00000160: 10a6 fd3c 6eb0 02bd 4182 aebc d6a7 a73c
00000170: 6c3c 57bd 0c48 cfbc 17c5 023d e3f4 7dbd
00000180: 0036 7d3c fa5d 2b3d 70a8 6abd d9f4 34ba
00000190: 504b 2bbb 1355 97bc 8b4a 0d3d 0752 d03c
000001a0: 848b 2dbd 3300 59bb 4c26 193d cb39 3dbc
000001b0: 6326 1f3c f4e0 20bd e19d bdbc 4ea4 413d
000001c0: 893c 753d 369c e53b 43e2 4ebc abad ee3c
000001d0: 5790 163d 51da 193c 81eb f03b 1e44 12bc
000001e0: 8a9e c3bc abb5 c63c e1f4 3fbd 21e6 a8bb
000001f0: 8447 0bbd fc25 91bc d94b 623c 0a88 61bd
00000200: 1173 91ba f214 87bd 68b9 1d3d 64a2 90bc
00000210: de1e 683c f1da 98bd f151 613c aeb1 76bc
00000220: cb78 a0bb ee72 31bd a135 253b 0e6d 08bd
00000230: 999b d8bc 1459 263d 5cda 4d3b e4e1 cbbc
00000240: 9404 52bd c15a aabc c7b5 d53c 6649 6d3b
00000250: 122c a03b a70e 0bbd 5c7d a63b 06e0 4e3d
00000260: 4ef2 5ebd eee7 7bbd 02e8 89bd d3ba d3bb
00000270: 1ee3 5e3c 927b bcbc 9a11 18bd fc5a b7bc
00000280: 34db 333c ce70 5c3d baa1 143d 346c 473c
00000290: 643c c43c fe17 c23d 0b6b b1bc 6989 873c
000002a0: 8ddd e83a 0dc7 883d e7a5 97bd dfc0 a1bc
000002b0: 8a41 95bd 61d8 723b 4c57 073b 761f d5bc
000002c0: 6be4 4fbd 1271 b4bc 097d bd3c 7be0 9c3c
000002d0: e1bf 0fbd e6d6 e1bd c79a 773d 2777 873d
000002e0: b4ec 59b9 df18 1cbd 8a2b 8e3c 2eaf c3bc
000002f0: 48de 6a3d cf8d 393d 3975 fa3c fd9e 703b
00000300: e351 82bd 4b7a 74bb 90eb d8bc d3d9 623c
00000310: b931 cc3c a2bb e63c 6f44 e7bb 3a5d 99bb
00000320: f101 7e3d f7de 26bd b8d2 133b e222 553d
00000330: e7c5 36bd db77 2abc 5855 45bc 4896 19bc
00000340: 2b74 a73b c9df 4bbc 5a95 67bc cd40 ddbc
00000350: 0422 8d3c a1a0 f73b 804b 56bb 1420 f03c
00000360: e84c a33c 2a81 a93d e701 e53b 4a42 60bd
00000370: be8a c6bc cb9f 0dbc 24a4 113d ba1f d7bb
00000380: 9bc5 05bc a3c8 583d 662a f33c d82f 80bb
00000390: e03c fdbc 2acc aabc 264f 8d3c ccb4 633d
000003a0: 749a b13c a6f9 a3bb c8cf bb3c 7cc2 b2bc
000003b0: 72da 18bd 2546 0f3d 9a65 b03c 1731 9dbc
000003c0: c1da a63c 7018 52ba 2041 eb3b 9cd7 af3c
000003d0: 0d05 26bc f397 30bd ac3c 4fbc a2e2 453d
000003e0: 13f4 593d cdc2 50bc 423c 763d 072d 0fbd
000003f0: b4b5 d6bb 596c 4e3c d6c8 fbbc f79e a7bd
-0.033818267 -0.08023577 -0.01071493 -0.014833162 -0.0325488 -0.017313085 0.04659364 -0.004910059
0.032891795 -0.008670422 0.0161967 0.005559178 0.0021681213 -0.02161573 0.003943913 0.020741878
0.009556945 -0.03386741 0.025288314 0.019636108 -0.0123158265 0.006399208 0.050893344 0.02277565
0.009579682 -0.04386908 -0.07179371 -0.03455279 0.051112436 -0.04575279 -0.04292555 -7.146951e-05
-0.009819021 0.046122268 -0.016558688 -0.00400355 -0.018075129 0.0016042872 0.022850525 -0.05948556
0.0126632545 0.036051333 -0.034463074 -0.025004044 -0.007896544 -0.044171933 0.029686576 0.044615697
0.052081168 0.047650676 0.03296877 0.01698324 0.033421118 0.0038553255 0.034109347 -0.011663279
0.0015877441 0.005825941 0.026357345 0.01885029 -0.01299931 0.0076867957 0.048146144 -0.016955711
0.01747846 -0.014948744 -0.0694587 -0.020004656 0.07541351 -0.04681575 0.022178536 0.048660234
0.07989158 -0.04926271 -0.01849396 0.019937359 0.044125024 -0.0334158 -0.04133726 -0.034078587
0.013690617 0.00096379034 -0.024174681 0.009531042 0.008041324 0.045442086 -0.022521937 0.036598034
0.030962974 -0.031906538 -0.021302344 0.020465773 -0.052547857 -0.02530291 0.03192624 -0.06200112
0.015454769 0.04183767 -0.05728954 -0.000690294 -0.002613742 -0.018473184 0.034494918 0.025429739
-0.04236938 -0.003311169 0.03739004 -0.011549423 0.009713742 -0.039277032 -0.023146572 0.047275834
0.059872184 0.007007147 -0.012627187 0.029135546 0.036758747 0.00939043 0.007352293 -0.008927373
-0.023879308 0.024256548 -0.046864394 -0.0051543866 -0.03400375 -0.017718308 0.013812029 -0.055061378
-0.0011096915 -0.06595792 0.038506895 -0.017655559 0.014167516 -0.07463635 0.0137524465 -0.015057011
-0.004897212 -0.043322496 0.0025208967 -0.033307128 -0.026441382 0.040612295 0.003141067 -0.024887986
-0.051273897 -0.020795228 0.026087655 0.003620708 0.004888066 -0.03394952 0.005080862 0.050506614
-0.0544303 -0.061500482 -0.06733705 -0.00646148 0.013603954 -0.023008142 -0.03712616 -0.022382252
0.010977555 0.053818516 0.036287047 0.012171794 0.023954578 0.094772324 -0.021657487 0.016545014
0.0017766223 0.06678591 -0.0740469 -0.019745288 -0.07287891 0.0037055241 0.0020651398 -0.026015978
-0.050754946 -0.022026572 0.02313091 0.01915001 -0.0350951 -0.11027317 0.06045034 0.066145234
-0.00020782911 -0.038109656 0.017354745 -0.023887243 0.05734089 0.045301255 0.030573474 0.0036715858
-0.06363275 -0.0037304338 -0.026479512 0.013845879 0.024926053 0.028165642 -0.0070577185 -0.004680303
0.06201357 -0.04073998 0.0022556018 0.05203522 -0.044622328 -0.010404552 -0.012044273 -0.009374209
0.005110284 -0.012443491 -0.014134729 -0.027008438 0.017228134 0.0075569903 -0.003269881 0.029312171
0.019934133 0.08276589 0.006988752 -0.05475072 -0.02423608 -0.008644055 0.035556927 -0.0065650614
-0.008164789 0.052925717 0.029683303 -0.0039119534 -0.030912817 -0.020849306 0.017249655 0.055592343
0.021680094 -0.0050041256 0.022926226 -0.021821253 -0.0373177 0.034979004 0.021532822 -0.019188447
0.020367982 -0.0008014506 0.0071793944 0.021465115 -0.01013304 -0.04311366 -0.012648743 0.048311837
0.053211283 -0.012741757 0.06011606 -0.03495505 -0.0065524224 0.012599074 -0.030735414 -0.08184617

net.fc1.bias f4 [32]
00000000: ef39 21ba 7ae7 15bd 1146 34bc 9554 5d3d
00000010: c1e0 f9bc 89ed 49bd e831 edbc a8bf 043d
00000020: 4080 1c3d 0610 a4bc 9db1 773c 09b3 2bbd
00000030: 9388 a13c bda3 20bc 3b43 25bd 5a72 f3bb
00000040: 6dd6 2bbd 05b6 2fbd 1cec 4c3b 5016 d63b
00000050: 4007 03bd 098c 003d bc31 5abb 6bca 013d
00000060: 15dd 153d 27d7 00bd adec 97bc de94 253b
00000070: 7e72 553c 9819 4538 e0ab c03c e9c6 863d
-0.00061502954 -0.036597706 -0.011003033 0.05403574 -0.030502679 -0.049298797 -0.028954461 0.03240934
0.038208246 -0.020027172 0.01511803 -0.041918788 0.019718444 -0.009804663 -0.04034732 -0.0074294033
-0.04195254 -0.042898197 0.0031268662 0.0065334216 -0.031989336 0.031383548 -0.0033293804 0.03168718
0.036587793 -0.031455185 -0.018545473 0.0025265734 0.013027785 4.6992296e-05 0.023519456 0.06580908

net.fc2.weight f4 [10, 32]
00000000: d8f3 343e 9bcb 5c3e 06be c5be 1a56 10bf
00000010: 13d9 3f3e f969 c13e 1891 eabd efe6 883e
00000020: ce82 65be 3ea9 c63d 6501 32bd bae4 78be
00000030: d6fd c2be 0f49 133e f502 0d3e 0218 023f
00000040: 71e9 b0be 1acc 933e 72e4 0abf e992 053e
00000050: be2b 9c3e 34f4 bcbc f6ae d23e eb4c 07bf
00000060: 4141 a83d 6c38 4dbe 4c4d 6fbc 17fa 05be
00000070: ab71 613e 4d6b ecbc 13b3 283e 2da1 d63e
00000080: 4f88 89be 9eeb c7be db9f 2a3e 274e 203e
00000090: d751 e3be f71c 84be 649e c33e 617a bcbe
000000a0: b8d5 f33e c6f8 68be cd87 0f3f f922 a6be
000000b0: de0a 513e f5c2 913b d749 9c3d 2cca 5a3d
000000c0: 54af d53e c754 9b3d 1086 ad3e 1ac5 78be
000000d0: 4adb fabe 8cb3 8f3e ed8e 93bd e7b2 543e
000000e0: c539 7d3e d652 c33e e70b d93e 2f91 ef3d
000000f0: 798d 0c3e 618a 663e fc17 3b3d f536 da3e
00000100: d6e7 8fbe a58d c7be b689 093e 8b2b a43e
00000110: 20b1 1abe c501 b3be 5bbe debe 4e57 edbc
00000120: fb3a 7dbe e780 4f3e 8db3 1a3e 6652 92be
00000130: a51d e8be b0d3 c9be 2056 babe 17cd aa3e
00000140: 2da6 19be fe34 7cbe 5380 a13c d488 4fb9
00000150: 18e0 afbe 470c bcbe e13c 86be b0ef 17bf
00000160: 82f4 b33e f262 d6be 9acf 99be 889e b13d
00000170: 2e92 cdbe 6f5d 863e 8e65 6b3e 7762 2e3e
00000180: 7e57 0bbf 2e7c 773e 463a 52be 9a86 c43e
00000190: 425b 80bd ec32 a5bd ad1e 8cbe 088c 69bc
000001a0: e0dd 81be 7def 933e a006 9dbe ff2a 0cbe
000001b0: 7018 b23e 5505 0b3e cf86 ca3d 4901 963d
000001c0: 72e0 d43e f6bf fabe 92a5 a43e 7369 4a3e
000001d0: 80bb a5bd 7a55 413e 3999 76be 31fb fc3d
000001e0: 4c70 193f 6b66 cdbe 73a6 8fbe ed66 67be
000001f0: abb4 023f 482f 68be 1f3d 333e f3ce adbe
00000200: 3708 b23e 3e80 b93e 3813 95be 4916 d93d
00000210: 118c b5be d8a1 8ebe f4c8 92be bc38 62be
00000220: c2fb 803d f25e c0be 6fb5 29be c67c 7d3d
00000230: 0e10 cdbc 5faa 8ebe 71cc ea3e cd28 44be
00000240: d97e 44bc edcf aabe b67c 00bf b757 fcbe
00000250: 8e87 89be dc17 c7be 25db c53e 6a02 793e
00000260: bc55 93be 5ed3 db3e 8d9a 923e f529 cd3e
00000270: 9da1 b4be 4850 c2bd 6472 cc3d fe0f a1be
00000280: c0f8 503e e8ab 9abc dd12 893e 3287 72be
00000290: c149 57be f434 c73e 8a6d 3c3e 60bd b93e
000002a0: 2655 9c3b f82a a73e ef28 8abe ebec 273f
000002b0: 5dd4 ab3e d19d e8bd 1559 88be a63a 9fbe
000002c0: b476 92be ee5a 0f3e af83 f03e 1877 343d
000002d0: a4da bc3d 77b6 8f3e a5fd 5a3e b89b b63d
000002e0: fac6 7ebe 6d73 4dbe 5ccf 173e b10c 01bf
000002f0: cc84 193f 2aaf 5dbe bb1c bf3e 8a49 5ebe
00000300: b741 e23d bd8e 77bd d445 11bf e09f cfbd
00000310: dfa9 b7bd a981 c13d d11f 893e 9c7a d73e
00000320: 6e23 1dbe 1833 3dbd 60bb 243f 4f92 c33d
00000330: 9401 643d f3db 9cbe a31c e4be 2c2b 90be
00000340: 926a 09be fb1f 41bd 831a 2a3e 7365 17bf
00000350: a5f7 f1be 4a59 a5be 240f 143f ff10 acbb
00000360: 5dd1 b2be bf27 ad3e 1f35 b3be f034 d8be
00000370: 089a 97be c2ed ad3e 823a 493e 90dc 3abe
00000380: d7f0 0f3e 8251 1e3e e2b0 833e d1f8 753e
00000390: 2312 583e 8127 49bd 58bb a6be 0e20 c93e
000003a0: 5405 293f 7eaf 1abf 4d18 32be f817 973d
000003b0: ff2f b53b 8e98 c73d 4d3c fe3e e6c0 8d3d
000003c0: a06e e23e 2503 a6be 2971 2a3e 5577 203e
000003d0: 9448 9b3e 73b2 6a3e 9762 3dbe b9c2 c93d
000003e0: 6560 8dbe 004d ccbe e5ae 7bbe c633 813e
000003f0: 6111 8a3b 41dd 42be 40d7 d2be 1184 233f
0.17671144 0.21562044 -0.3862154 -0.5638138 0.18735151 0.37776163 -0.11453456 0.26738688
-0.2241318 0.09700249 -0.04345836 -0.24306002 -0.38084286 0.14383338 0.1377066 0.50817883
-0.34553102 0.28866655 -0.5425483 0.13044323 0.30502123 -0.023065664 0.4114911 -0.5285174
0.08215571 -0.20041054 -0.014605831 -0.13083683 0.22016017 -0.028859759 0.16474561 0.41919842
-0.26861808 -0.3904695 0.16662543 0.15654813 -0.44398376 -0.25803348 0.3820678 -0.36812118
0.47623992 -0.2275115 0.5606659 -0.32448557 0.20414302 0.0044482895 0.07631271 0.053415462
0.41735327 0.07584529 0.33891344 -0.24293938 -0.4899543 0.2806667 -0.07204995 0.20771371
0.24729069 0.38149136 0.42391893 0.116976134 0.13725843 0.22513725 0.04567717 0.42620054
-0.28106564 -0.38975254 0.13431439 0.3206447 -0.1510663 -0.34962288 -0.43504605 -0.028972294
-0.2472953 0.20264016 0.15107556 -0.2857849 -0.45335117 -0.39419317 -0.36393833 0.33359596
-0.15004797 -0.2462959 0.01971451 -0.00019792031 -0.34350657 -0.36728117 -0.26218322 -0.5935011
0.35147482 -0.41872364 -0.300412 0.086728156 -0.4015059 0.2624316 0.22987959 0.17029749
-0.5443038 0.24168465 -0.20530042 0.38383943 -0.06267406 -0.08066353 -0.27367154 -0.014254577
-0.2536459 0.28893653 -0.30669117 -0.13688277 0.3478427 0.13576253 0.09888994 0.07324464
0.41577488 -0.4897458 0.3215757 0.19766788 -0.080924034 0.18880263 -0.24081887 0.123525985
0.59936976 -0.401172 -0.28056678 -0.22597857 0.5105693 -0.22674286 0.17503785 -0.33946952
0.34771892 0.36230654 -0.29116225 0.10599954 -0.35458425 -0.27857852 -0.2866894 -0.22091955
0.06298019 -0.37572438 -0.16573118 0.06188657 -0.02503207 -0.27864358 0.458591 -0.1915619
-0.011993133 -0.3336176 -0.50190294 -0.4928567 -0.26861233 -0.3888539 0.38643757 0.24317327
-0.28776348 0.42934698 0.28633538 0.40071073 -0.3527955 -0.09487969 0.09982756 -0.31457514
0.2040739 -0.0188808 0.26772204 -0.23684385 -0.21024229 0.38907588 0.18401161 0.36277294
0.0047708927 0.3264997 -0.26984355 0.65595883 0.33560458 -0.11358226 -0.26630464 -0.31099433
-0.28606188 0.1399953 0.46975467 0.04405889 0.0922139 0.28068897 0.2138582 0.0891642
-0.24880591 -0.20063563 0.14825195 -0.5040999 0.59968257 -0.21648851 0.37326607 -0.2170774
0.1104769 -0.06043886 -0.56747174 -0.101379156 -0.08967947 0.09448559 0.26782086 0.4208573
-0.15345547 -0.046191305 0.6434841 0.095493905 0.055665568 -0.30636558 -0.44553098 -0.28157938
-0.1341956 -0.04714964 0.16611676 -0.59139174 -0.4725925 -0.32294685 0.578356 -0.0052510495
-0.34925357 0.33819386 -0.35001466 -0.42227888 -0.29609704 0.33970457 0.19651225 -0.182482
0.14056717 0.1546078 0.25720888 0.24020697 0.21100669 -0.04910994 -0.32564807 0.39282268
0.66023755 -0.6042403 -0.17392083 0.073776186 0.005529403 0.09745894 0.4965538 0.06921558
0.44225025 -0.32424274 0.1664473 0.15670522 0.3032881 0.22919635 -0.1849464 0.098515935
-0.27612606 -0.39902496 -0.24578436 0.25234812 0.0042134975 -0.19029714 -0.41179848 0.6387339

net.fc2.bias f4 [10]
00000000: 79d9 1fbc 66ee efbc 7fa8 823d d780 cebc
00000010: e4a1 30be 61a4 2e3e 4ceb d93c 905c 9fbd
00000020: 9fc8 05bd b218 f4bc
-0.009756439 -0.029288482 0.06379794 -0.02520792 -0.17249256 0.17054893 0.026601456 -0.07781327
-0.03266203 -0.029796932
